…
			Yolov2测试：./darknet detector test cfg/voc.data cfg/yolo.cfg backup/yolo_100.weights data/data20170810/JPEGImages/0002.jpg -thresh 0.5
			或者 （检测多张图片）  先执行：./darknet detect cfg/voc.data cfg/yolo.cfg backup/yolo_2000.weights -thresh 0.5 加载模型，
			会提示输入图片路径Enter Image Path:输入如./data/dog.jpg   ctrl+c终止程序
			
			./darknet detector test cfg/voc.data cfg/yolo.cfg backup/yolo_28000.weights data/data20170810/JPEGImages/0002.jpg -thresh 0.5
			
			error:
				a. Segmentation fault (core dumped)

	6)源码备注：
		a. 预测在detector.c  关键字（ Predicted）； draw_detections() 该函数在image.c中；
		b. 重新编译： make clean
					make
	7) 网络结构：
		layer     filters    size              input                output
		0 conv     32  3 x 3 / 1   608 x 608 x   3   ->   608 x 608 x  32
		1 max          2 x 2 / 2   608 x 608 x  32   ->   304 x 304 x  32
		
		2 conv     64  3 x 3 / 1   304 x 304 x  32   ->   304 x 304 x  64
		3 max          2 x 2 / 2   304 x 304 x  64   ->   152 x 152 x  64
		
		4 conv    128  3 x 3 / 1   152 x 152 x  64   ->   152 x 152 x 128
		5 conv     64  1 x 1 / 1   152 x 152 x 128   ->   152 x 152 x  64
		6 conv    128  3 x 3 / 1   152 x 152 x  64   ->   152 x 152 x 128
		7 max          2 x 2 / 2   152 x 152 x 128   ->    76 x  76 x 128
		
		8 conv    256  3 x 3 / 1    76 x  76 x 128   ->    76 x  76 x 256
		9 conv    128  1 x 1 / 1    76 x  76 x 256   ->    76 x  76 x 128
		10 conv    256  3 x 3 / 1    76 x  76 x 128   ->    76 x  76 x 256
		11 max          2 x 2 / 2    76 x  76 x 256   ->    38 x  38 x 256
		
		12 conv    512  3 x 3 / 1    38 x  38 x 256   ->    38 x  38 x 512
		13 conv    256  1 x 1 / 1    38 x  38 x 512   ->    38 x  38 x 256
		14 conv    512  3 x 3 / 1    38 x  38 x 256   ->    38 x  38 x 512
		15 conv    256  1 x 1 / 1    38 x  38 x 512   ->    38 x  38 x 256
		16 conv    512  3 x 3 / 1    38 x  38 x 256   ->    38 x  38 x 512
		17 max          2 x 2 / 2    38 x  38 x 512   ->    19 x  19 x 512
		
		18 conv   1024  3 x 3 / 1    19 x  19 x 512   ->    19 x  19 x1024
		19 conv    512  1 x 1 / 1    19 x  19 x1024   ->    19 x  19 x 512
		20 conv   1024  3 x 3 / 1    19 x  19 x 512   ->    19 x  19 x1024
		21 conv    512  1 x 1 / 1    19 x  19 x1024   ->    19 x  19 x 512
		22 conv   1024  3 x 3 / 1    19 x  19 x 512   ->    19 x  19 x1024
		23 conv   1024  3 x 3 / 1    19 x  19 x1024   ->    19 x  19 x1024
		24 conv   1024  3 x 3 / 1    19 x  19 x1024   ->    19 x  19 x1024
		25 route  16
		26 conv     64  1 x 1 / 1    38 x  38 x 512   ->    38 x  38 x  64
		27 reorg              / 2    38 x  38 x  64   ->    19 x  19 x 256
		28 route  27 24
		29 conv   1024  3 x 3 / 1    19 x  19 x1280   ->    19 x  19 x1024
		30 conv     65  1 x 1 / 1    19 x  19 x1024   ->    19 x  19 x  65
		31 detection

		
7. 爬虫技术：可以参考“GAN学习指南：从原理入门到制作生成demo”的第三部分
8. svm: 
	1)
		ret = self.svm.train(train_data, train_label, self.param)
		TypeError: varIdx is not a numpy array, neither a scalar （varIdx 不是一个numpy数组，也不是标量数组）
		原因： self.param参数定义为dict，所以保存； cv2.__version__ ('2.4.13')
		解决办法： ret = self.svm.train(train_data, train_label, None, None, self.param) 
…
